…
2018-02-02 10:32:51.914154: W tensorflow/core/platform/cpu_feature_guard.cc:45] The TensorFlow library wasn't compiled to use AVX2 instructions, but these are available on your machine and could speed up CPU computations.
2018-02-02 10:32:51.914163: W tensorflow/core/platform/cpu_feature_guard.cc:45] The TensorFlow library wasn't compiled to use FMA instructions, but these are available on your machine and could speed up CPU computations.
____________________________________________________________________________________________________
Layer (type)                     Output Shape          Param #     Connected to                     
====================================================================================================
input_signal (InputLayer)        (None, 448, 1, 1433)  0                                            
____________________________________________________________________________________________________
agg1 (AggregateLayer)            (None, 112, 16, 128)  2987008     input_signal[0][0]               
____________________________________________________________________________________________________
cap1 (GraphCapsuleLayer)         (None, 112, 16, 8)    262144      agg1[0][0]                       
____________________________________________________________________________________________________
cap1_squash (Lambda)             (None, 112, 16, 8)    0           cap1[0][0]                       
____________________________________________________________________________________________________
agg2 (AggregateLayer)            (None, 28, 16, 32)    69184       cap1_squash[0][0]                
____________________________________________________________________________________________________
cap2 (GraphCapsuleLayer)         (None, 28, 7, 4)      14336       agg2[0][0]                       
____________________________________________________________________________________________________
lambda_1 (Lambda)                (None, 28, 7, 4)      0           cap2[0][0]                       
____________________________________________________________________________________________________
agg3 (AggregateLayer)            (None, 7, 8, 16)      3908        lambda_1[0][0]                   
____________________________________________________________________________________________________
cap3 (GraphCapsuleLayer)         (None, 7, 1, 2)       256         agg3[0][0]                       
____________________________________________________________________________________________________
reshape_first_layer (Reshape)    (None, 112, 128)      0           cap1[0][0]                       
____________________________________________________________________________________________________
reshape_second_layer (Reshape)   (None, 28, 28)        0           cap2[0][0]                       
____________________________________________________________________________________________________
reshape_third_layer (Reshape)    (None, 7, 2)          0           cap3[0][0]                       
____________________________________________________________________________________________________
embedding_first_layer (Lambda)   (None, 112, 128)      0           reshape_first_layer[0][0]        
____________________________________________________________________________________________________
embedding_second_layer (Lambda)  (None, 28, 28)        0           reshape_second_layer[0][0]       
____________________________________________________________________________________________________
embedding_third_layer (Lambda)   (None, 7, 2)          0           reshape_third_layer[0][0]        
____________________________________________________________________________________________________
label_predictions (Length)       (None, 28, 7)         0           lambda_1[0][0]                   
____________________________________________________________________________________________________
hyperbolic_distance_first_layer  (None, 6)             0           embedding_first_layer[0][0]      
____________________________________________________________________________________________________
hyperbolic_distance_second_layer (None, 6)             0           embedding_second_layer[0][0]     
____________________________________________________________________________________________________
hyperbolic_distance_third_layer  (None, 6)             0           embedding_third_layer[0][0]      
====================================================================================================
Total params: 3,336,836
Trainable params: 3,283,328
Non-trainable params: 53,508
____________________________________________________________________________________________________
Epoch 1/1000
1/1 [==============================] - 26s - loss: 1.9859 - label_predictions_loss_1: 8.0497 - label_predictions_loss_2: 8.0464 - hyperbolic_distance_first_layer_loss: 1.7865 - hyperbolic_distance_second_layer_loss: 1.7918 - hyperbolic_distance_third_layer_loss: 1.7918
…
